#di_basic_type = #llvm.di_basic_type<tag = DW_TAG_base_type, name = "unsigned int", sizeInBits = 32, encoding = DW_ATE_unsigned>
#di_file = #llvm.di_file<"tests/app/axpy/axpy.cpp" in "/home/sihao/github.com/PolyArch/loom">
#di_null_type = #llvm.di_null_type
#loc1 = loc("tests/app/axpy/axpy.cpp":8:0)
#loc5 = loc("tests/app/axpy/axpy.cpp":19:0)
#di_compile_unit = #llvm.di_compile_unit<id = distinct[0]<>, sourceLanguage = DW_LANG_C_plus_plus_14, file = #di_file, producer = "clang version 23.0.0git (https://github.com/llvm/llvm-project.git b7c1a6f8b447fba6fff47d309eb7ba1bc22e8c53)", isOptimized = false, emissionKind = Full, nameTableKind = None>
#di_derived_type = #llvm.di_derived_type<tag = DW_TAG_typedef, name = "__uint32_t", baseType = #di_basic_type>
#di_derived_type1 = #llvm.di_derived_type<tag = DW_TAG_typedef, name = "uint32_t", baseType = #di_derived_type>
#di_derived_type2 = #llvm.di_derived_type<tag = DW_TAG_const_type, baseType = #di_derived_type1>
#di_derived_type3 = #llvm.di_derived_type<tag = DW_TAG_pointer_type, baseType = #di_derived_type1, sizeInBits = 64>
#di_derived_type4 = #llvm.di_derived_type<tag = DW_TAG_pointer_type, baseType = #di_derived_type2, sizeInBits = 64>
#di_derived_type5 = #llvm.di_derived_type<tag = DW_TAG_restrict_type, baseType = #di_derived_type3>
#di_derived_type6 = #llvm.di_derived_type<tag = DW_TAG_restrict_type, baseType = #di_derived_type4>
#di_subroutine_type1 = #llvm.di_subroutine_type<types = #di_null_type, #di_derived_type6, #di_derived_type6, #di_derived_type5, #di_derived_type1, #di_derived_type1>
#di_subprogram1 = #llvm.di_subprogram<id = distinct[1]<>, compileUnit = #di_compile_unit, scope = #di_file, name = "axpy_cpu", linkageName = "_Z8axpy_cpuPKjS0_Pjjj", file = #di_file, line = 8, scopeLine = 11, subprogramFlags = Definition, type = #di_subroutine_type1>
#di_subprogram2 = #llvm.di_subprogram<id = distinct[2]<>, compileUnit = #di_compile_unit, scope = #di_file, name = "axpy_dsa", linkageName = "_Z8axpy_dsaPKjS0_Pjjj", file = #di_file, line = 19, scopeLine = 22, subprogramFlags = Definition, type = #di_subroutine_type1>
#loc51 = loc(fused<#di_subprogram1>[#loc1])
#loc53 = loc(fused<#di_subprogram2>[#loc5])
module attributes {dlti.dl_spec = #dlti.dl_spec<!llvm.ptr<270> = dense<32> : vector<4xi64>, !llvm.ptr<271> = dense<32> : vector<4xi64>, !llvm.ptr<272> = dense<64> : vector<4xi64>, i64 = dense<64> : vector<2xi64>, i128 = dense<128> : vector<2xi64>, f80 = dense<128> : vector<2xi64>, !llvm.ptr = dense<64> : vector<4xi64>, i1 = dense<8> : vector<2xi64>, i8 = dense<8> : vector<2xi64>, i16 = dense<16> : vector<2xi64>, i32 = dense<32> : vector<2xi64>, f16 = dense<16> : vector<2xi64>, f64 = dense<64> : vector<2xi64>, f128 = dense<128> : vector<2xi64>, "dlti.endianness" = "little", "dlti.mangling_mode" = "e", "dlti.legal_int_widths" = array<i32: 8, 16, 32, 64>, "dlti.stack_alignment" = 128 : i64>, llvm.ident = "clang version 23.0.0git (https://github.com/llvm/llvm-project.git b7c1a6f8b447fba6fff47d309eb7ba1bc22e8c53)", llvm.module_asm = [], llvm.target_triple = "x86_64-unknown-linux-gnu"} {
  memref.global constant @".str" : memref<16xi8> = dense<[108, 111, 111, 109, 46, 97, 99, 99, 101, 108, 61, 97, 120, 112, 121, 0]> loc(#loc)
  memref.global constant @".str.1" : memref<24xi8> = dense<[116, 101, 115, 116, 115, 47, 97, 112, 112, 47, 97, 120, 112, 121, 47, 97, 120, 112, 121, 46, 99, 112, 112, 0]> loc(#loc)
  memref.global constant @__const.main.x : memref<8xi32> = dense<[1, 2, 3, 4, 5, 6, 7, 8]> {alignment = 16 : i64} loc(#loc)
  memref.global constant @__const.main.y : memref<8xi32> = dense<[10, 20, 30, 40, 50, 60, 70, 80]> {alignment = 16 : i64} loc(#loc)
  memref.global constant @".str.2" : memref<43xi8> = dense<[65, 88, 80, 89, 32, 82, 101, 115, 117, 108, 116, 115, 32, 40, 121, 32, 61, 32, 97, 108, 112, 104, 97, 42, 120, 32, 43, 32, 121, 44, 32, 97, 108, 112, 104, 97, 61, 37, 117, 41, 58, 10, 0]> {alignment = 1 : i64} loc(#loc)
  memref.global constant @".str.1.3" : memref<8xi8> = dense<[120, 32, 32, 32, 61, 32, 91, 0]> {alignment = 1 : i64} loc(#loc)
  memref.global constant @".str.2.4" : memref<5xi8> = dense<[37, 117, 37, 115, 0]> {alignment = 1 : i64} loc(#loc)
  memref.global constant @".str.3" : memref<3xi8> = dense<[44, 32, 0]> {alignment = 1 : i64} loc(#loc)
  memref.global constant @".str.4" : memref<1xi8> = dense<0> {alignment = 1 : i64} loc(#loc)
  memref.global constant @".str.5" : memref<3xi8> = dense<[93, 10, 0]> {alignment = 1 : i64} loc(#loc)
  memref.global constant @".str.6" : memref<8xi8> = dense<[121, 32, 32, 32, 61, 32, 91, 0]> {alignment = 1 : i64} loc(#loc)
  memref.global constant @".str.7" : memref<8xi8> = dense<[111, 117, 116, 32, 61, 32, 91, 0]> {alignment = 1 : i64} loc(#loc)
  memref.global constant @".str.8" : memref<36xi8> = dense<[70, 65, 73, 76, 69, 68, 32, 97, 116, 32, 105, 110, 100, 101, 120, 32, 37, 117, 58, 32, 99, 112, 117, 61, 37, 117, 44, 32, 100, 115, 97, 61, 37, 117, 10, 0]> {alignment = 1 : i64} loc(#loc)
  memref.global constant @".str.9" : memref<30xi8> = dense<[80, 65, 83, 83, 69, 68, 58, 32, 65, 108, 108, 32, 114, 101, 115, 117, 108, 116, 115, 32, 99, 111, 114, 114, 101, 99, 116, 33, 10, 0]> {alignment = 1 : i64} loc(#loc)
  llvm.module_flags [#llvm.mlir.module_flag<max, "Dwarf Version", 5 : i32>, #llvm.mlir.module_flag<warning, "Debug Info Version", 3 : i32>, #llvm.mlir.module_flag<error, "wchar_size", 4 : i32>, #llvm.mlir.module_flag<min, "PIC Level", 2 : i32>, #llvm.mlir.module_flag<max, "PIE Level", 2 : i32>, #llvm.mlir.module_flag<max, "uwtable", 2 : i32>, #llvm.mlir.module_flag<max, "frame-pointer", 2 : i32>] loc(#loc)
  func.func @_Z8axpy_cpuPKjS0_Pjjj(%arg0: memref<?xi32, strided<[1], offset: ?>> {loom.noalias} loc(fused<#di_subprogram1>[#loc1]), %arg1: memref<?xi32, strided<[1], offset: ?>> {loom.noalias} loc(fused<#di_subprogram1>[#loc1]), %arg2: memref<?xi32, strided<[1], offset: ?>> {loom.noalias} loc(fused<#di_subprogram1>[#loc1]), %arg3: i32 loc(fused<#di_subprogram1>[#loc1]), %arg4: i32 loc(fused<#di_subprogram1>[#loc1])) {
    %c1 = arith.constant 1 : index loc(#loc56)
    %c0 = arith.constant 0 : index loc(#loc56)
    %0 = arith.index_cast %arg4 : i32 to index loc(#loc56)
    scf.for unsigned %arg5 = %c0 to %0 step %c1 {
      %1 = arith.index_cast %arg5 : index to i32 loc(#loc56)
      %2 = arith.extui %1 : i32 to i64 loc(#loc58)
      %3 = arith.index_cast %2 : i64 to index loc(#loc58)
      %4 = memref.load %arg0[%3] : memref<?xi32, strided<[1], offset: ?>> loc(#loc58)
      %5 = arith.muli %arg3, %4 : i32 loc(#loc58)
      %6 = memref.load %arg1[%3] : memref<?xi32, strided<[1], offset: ?>> loc(#loc58)
      %7 = arith.addi %5, %6 : i32 loc(#loc58)
      memref.store %7, %arg2[%3] : memref<?xi32, strided<[1], offset: ?>> loc(#loc58)
    } loc(#loc56)
    return loc(#loc52)
  } loc(#loc51)
  handshake.func @_Z8axpy_dsaPKjS0_Pjjj_esi(%arg0: memref<?xi32, strided<[1], offset: ?>> loc(fused<#di_subprogram2>[#loc5]), %arg1: memref<?xi32, strided<[1], offset: ?>> loc(fused<#di_subprogram2>[#loc5]), %arg2: memref<?xi32, strided<[1], offset: ?>> loc(fused<#di_subprogram2>[#loc5]), %arg3: i32 loc(fused<#di_subprogram2>[#loc5]), %arg4: i32 loc(fused<#di_subprogram2>[#loc5]), %arg5: i1 loc(fused<#di_subprogram2>[#loc5]), ...) -> i1 attributes {argNames = ["input_x", "input_y", "output_y", "alpha", "N", "start_token"], loom.annotations = ["loom.accel=axpy"], resNames = ["done_token"]} {
    %0 = handshake.join %arg5 : i1 loc(#loc53)
    %1 = handshake.join %0 : none loc(#loc53)
    %2 = handshake.constant %1 {value = 1 : index} : index loc(#loc57)
    %3 = handshake.constant %1 {value = 0 : index} : index loc(#loc57)
    %4 = arith.index_cast %arg4 : i32 to index loc(#loc57)
    %index, %willContinue = dataflow.stream %3, %2, %4 {loom.annotations = ["loom.loop.parallel degree=4 schedule=1", "loom.loop.tripcount typical=256 avg=256 min=1 max=1024"]} loc(#loc57)
    %afterValue, %afterCond = dataflow.gate %index, %willContinue : index, i1 -> index, i1 loc(#loc57)
    %5 = arith.index_cast %afterValue : index to i32 loc(#loc57)
    %6 = arith.extui %5 : i32 to i64 loc(#loc59)
    %7 = arith.index_cast %6 : i64 to index loc(#loc59)
    %dataResult, %addressResults = handshake.load [%7] %12#0, %trueResult : index, i32 loc(#loc59)
    %8 = dataflow.invariant %afterCond, %arg3 : i1, i32 -> i32 loc(#loc59)
    %9 = arith.muli %8, %dataResult : i32 loc(#loc59)
    %dataResult_0, %addressResults_1 = handshake.load [%7] %11#0, %trueResult_5 : index, i32 loc(#loc59)
    %10 = arith.addi %9, %dataResult_0 : i32 loc(#loc59)
    %dataResult_2, %addressResult = handshake.store [%7] %10, %trueResult_3 : index, i32 loc(#loc59)
    %11:2 = handshake.extmemory[ld = 1, st = 0] (%arg1 : memref<?xi32, strided<[1], offset: ?>>) (%addressResults_1) {id = 0 : i32} : (index) -> (i32, none) loc(#loc53)
    %12:2 = handshake.extmemory[ld = 1, st = 0] (%arg0 : memref<?xi32, strided<[1], offset: ?>>) (%addressResults) {id = 1 : i32} : (index) -> (i32, none) loc(#loc53)
    %13 = handshake.extmemory[ld = 0, st = 1] (%arg2 : memref<?xi32, strided<[1], offset: ?>>) (%dataResult_2, %addressResult) {id = 2 : i32} : (i32, index) -> none loc(#loc53)
    %14 = dataflow.carry %willContinue, %1, %12#1 : i1, none, none -> none loc(#loc57)
    %trueResult, %falseResult = handshake.cond_br %willContinue, %14 : none loc(#loc57)
    %15 = dataflow.carry %willContinue, %1, %13 : i1, none, none -> none loc(#loc57)
    %trueResult_3, %falseResult_4 = handshake.cond_br %willContinue, %15 : none loc(#loc57)
    %16 = dataflow.carry %willContinue, %1, %11#1 : i1, none, none -> none loc(#loc57)
    %trueResult_5, %falseResult_6 = handshake.cond_br %willContinue, %16 : none loc(#loc57)
    %17 = handshake.join %falseResult, %falseResult_4, %falseResult_6 : none, none, none loc(#loc53)
    %18 = handshake.constant %17 {value = true} : i1 loc(#loc53)
    handshake.return %18 : i1 loc(#loc53)
  } loc(#loc53)
  handshake.func @_Z8axpy_dsaPKjS0_Pjjj(%arg0: memref<?xi32, strided<[1], offset: ?>> loc(fused<#di_subprogram2>[#loc5]), %arg1: memref<?xi32, strided<[1], offset: ?>> loc(fused<#di_subprogram2>[#loc5]), %arg2: memref<?xi32, strided<[1], offset: ?>> loc(fused<#di_subprogram2>[#loc5]), %arg3: i32 loc(fused<#di_subprogram2>[#loc5]), %arg4: i32 loc(fused<#di_subprogram2>[#loc5]), %arg5: none loc(fused<#di_subprogram2>[#loc5]), ...) -> none attributes {argNames = ["input_x", "input_y", "output_y", "alpha", "N", "start_token"], loom.annotations = ["loom.accel=axpy"], resNames = ["done_token"]} {
    %0 = handshake.join %arg5 : none loc(#loc53)
    %1 = handshake.constant %0 {value = 1 : index} : index loc(#loc57)
    %2 = handshake.constant %0 {value = 0 : index} : index loc(#loc57)
    %3 = arith.index_cast %arg4 : i32 to index loc(#loc57)
    %index, %willContinue = dataflow.stream %2, %1, %3 {loom.annotations = ["loom.loop.parallel degree=4 schedule=1", "loom.loop.tripcount typical=256 avg=256 min=1 max=1024"]} loc(#loc57)
    %afterValue, %afterCond = dataflow.gate %index, %willContinue : index, i1 -> index, i1 loc(#loc57)
    %4 = arith.index_cast %afterValue : index to i32 loc(#loc57)
    %5 = arith.extui %4 : i32 to i64 loc(#loc59)
    %6 = arith.index_cast %5 : i64 to index loc(#loc59)
    %dataResult, %addressResults = handshake.load [%6] %11#0, %trueResult : index, i32 loc(#loc59)
    %7 = dataflow.invariant %afterCond, %arg3 : i1, i32 -> i32 loc(#loc59)
    %8 = arith.muli %7, %dataResult : i32 loc(#loc59)
    %dataResult_0, %addressResults_1 = handshake.load [%6] %10#0, %trueResult_5 : index, i32 loc(#loc59)
    %9 = arith.addi %8, %dataResult_0 : i32 loc(#loc59)
    %dataResult_2, %addressResult = handshake.store [%6] %9, %trueResult_3 : index, i32 loc(#loc59)
    %10:2 = handshake.extmemory[ld = 1, st = 0] (%arg1 : memref<?xi32, strided<[1], offset: ?>>) (%addressResults_1) {id = 0 : i32} : (index) -> (i32, none) loc(#loc53)
    %11:2 = handshake.extmemory[ld = 1, st = 0] (%arg0 : memref<?xi32, strided<[1], offset: ?>>) (%addressResults) {id = 1 : i32} : (index) -> (i32, none) loc(#loc53)
    %12 = handshake.extmemory[ld = 0, st = 1] (%arg2 : memref<?xi32, strided<[1], offset: ?>>) (%dataResult_2, %addressResult) {id = 2 : i32} : (i32, index) -> none loc(#loc53)
    %13 = dataflow.carry %willContinue, %0, %11#1 : i1, none, none -> none loc(#loc57)
    %trueResult, %falseResult = handshake.cond_br %willContinue, %13 : none loc(#loc57)
    %14 = dataflow.carry %willContinue, %0, %12 : i1, none, none -> none loc(#loc57)
    %trueResult_3, %falseResult_4 = handshake.cond_br %willContinue, %14 : none loc(#loc57)
    %15 = dataflow.carry %willContinue, %0, %10#1 : i1, none, none -> none loc(#loc57)
    %trueResult_5, %falseResult_6 = handshake.cond_br %willContinue, %15 : none loc(#loc57)
    %16 = handshake.join %falseResult, %falseResult_4, %falseResult_6 : none, none, none loc(#loc53)
    handshake.return %16 : none loc(#loc54)
  } loc(#loc53)
  func.func @main() -> i32 {
    %true = arith.constant true loc(#loc10)
    %false = arith.constant false loc(#loc31)
    %0 = seq.const_clock  low loc(#loc31)
    %c8 = arith.constant 8 : index loc(#loc10)
    %c1 = arith.constant 1 : index loc(#loc10)
    %c7_i32 = arith.constant 7 : i32 loc(#loc10)
    %c0_i8 = arith.constant 0 : i8 loc(#loc10)
    %c1_i8 = arith.constant 1 : i8 loc(#loc10)
    %c0 = arith.constant 0 : index loc(#loc10)
    %c8_i32 = arith.constant 8 : i32 loc(#loc10)
    %c3_i32 = arith.constant 3 : i32 loc(#loc10)
    %1 = memref.get_global @__const.main.x : memref<8xi32> loc(#loc10)
    %2 = memref.get_global @__const.main.y : memref<8xi32> loc(#loc10)
    %3 = memref.get_global @".str.2" : memref<43xi8> loc(#loc10)
    %4 = memref.get_global @".str.1.3" : memref<8xi8> loc(#loc10)
    %5 = memref.get_global @".str.5" : memref<3xi8> loc(#loc10)
    %6 = memref.get_global @".str.6" : memref<8xi8> loc(#loc10)
    %7 = memref.get_global @".str.7" : memref<8xi8> loc(#loc10)
    %8 = memref.get_global @".str.9" : memref<30xi8> loc(#loc10)
    %9 = memref.get_global @".str.8" : memref<36xi8> loc(#loc10)
    %10 = memref.get_global @".str.3" : memref<3xi8> loc(#loc10)
    %11 = memref.get_global @".str.4" : memref<1xi8> loc(#loc10)
    %12 = memref.get_global @".str.2.4" : memref<5xi8> loc(#loc10)
    %alloca = memref.alloca() : memref<8xi32> loc(#loc10)
    %alloca_0 = memref.alloca() : memref<8xi32> loc(#loc10)
    %alloca_1 = memref.alloca() : memref<8xi32> loc(#loc10)
    %alloca_2 = memref.alloca() : memref<8xi32> loc(#loc10)
    scf.for %arg0 = %c0 to %c8 step %c1 {
      %35 = memref.load %1[%arg0] : memref<8xi32> loc(#loc32)
      memref.store %35, %alloca[%arg0] : memref<8xi32> loc(#loc32)
    } loc(#loc32)
    scf.for %arg0 = %c0 to %c8 step %c1 {
      %35 = memref.load %2[%arg0] : memref<8xi32> loc(#loc33)
      memref.store %35, %alloca_0[%arg0] : memref<8xi32> loc(#loc33)
    } loc(#loc33)
    %cast = memref.cast %alloca : memref<8xi32> to memref<?xi32, strided<[1], offset: ?>> loc(#loc34)
    %cast_3 = memref.cast %alloca_0 : memref<8xi32> to memref<?xi32, strided<[1], offset: ?>> loc(#loc34)
    %cast_4 = memref.cast %alloca_1 : memref<8xi32> to memref<?xi32, strided<[1], offset: ?>> loc(#loc34)
    call @_Z8axpy_cpuPKjS0_Pjjj(%cast, %cast_3, %cast_4, %c3_i32, %c8_i32) : (memref<?xi32, strided<[1], offset: ?>>, memref<?xi32, strided<[1], offset: ?>>, memref<?xi32, strided<[1], offset: ?>>, i32, i32) -> () loc(#loc34)
    %cast_5 = memref.cast %alloca_2 : memref<8xi32> to memref<?xi32, strided<[1], offset: ?>> loc(#loc35)
    %chanOutput, %ready = esi.wrap.vr %cast, %true : memref<?xi32, strided<[1], offset: ?>> loc(#loc35)
    %chanOutput_6, %ready_7 = esi.wrap.vr %cast_3, %true : memref<?xi32, strided<[1], offset: ?>> loc(#loc35)
    %chanOutput_8, %ready_9 = esi.wrap.vr %cast_5, %true : memref<?xi32, strided<[1], offset: ?>> loc(#loc35)
    %chanOutput_10, %ready_11 = esi.wrap.vr %c3_i32, %true : i32 loc(#loc35)
    %chanOutput_12, %ready_13 = esi.wrap.vr %c8_i32, %true : i32 loc(#loc35)
    %chanOutput_14, %ready_15 = esi.wrap.vr %true, %true : i1 loc(#loc35)
    %13 = handshake.esi_instance @_Z8axpy_dsaPKjS0_Pjjj_esi "_Z8axpy_dsaPKjS0_Pjjj_inst0" clk %0 rst %false(%chanOutput, %chanOutput_6, %chanOutput_8, %chanOutput_10, %chanOutput_12, %chanOutput_14) : (!esi.channel<memref<?xi32, strided<[1], offset: ?>>>, !esi.channel<memref<?xi32, strided<[1], offset: ?>>>, !esi.channel<memref<?xi32, strided<[1], offset: ?>>>, !esi.channel<i32>, !esi.channel<i32>, !esi.channel<i1>) -> !esi.channel<i1> loc(#loc35)
    %rawOutput, %valid = esi.unwrap.vr %13, %true : i1 loc(#loc35)
    %intptr = memref.extract_aligned_pointer_as_index %3 : memref<43xi8> -> index loc(#loc36)
    %14 = arith.index_cast %intptr : index to i64 loc(#loc36)
    %15 = llvm.inttoptr %14 : i64 to !llvm.ptr loc(#loc36)
    %16 = llvm.call @printf(%15, %c3_i32) vararg(!llvm.func<i32 (ptr, ...)>) : (!llvm.ptr, i32) -> i32 loc(#loc36)
    %intptr_16 = memref.extract_aligned_pointer_as_index %4 : memref<8xi8> -> index loc(#loc37)
    %17 = arith.index_cast %intptr_16 : index to i64 loc(#loc37)
    %18 = llvm.inttoptr %17 : i64 to !llvm.ptr loc(#loc37)
    %19 = llvm.call @printf(%18) vararg(!llvm.func<i32 (ptr, ...)>) : (!llvm.ptr) -> i32 loc(#loc37)
    scf.for unsigned %arg0 = %c0 to %c8 step %c1 {
      %35 = arith.index_cast %arg0 : index to i32 loc(#loc45)
      %36 = arith.extui %35 : i32 to i64 loc(#loc45)
      %37 = arith.index_cast %36 : i64 to index loc(#loc45)
      %38 = memref.load %alloca[%37] : memref<8xi32> loc(#loc45)
      %39 = arith.cmpi ult, %35, %c7_i32 : i32 loc(#loc45)
      %cast_20 = memref.cast %10 : memref<3xi8> to memref<?xi8, strided<[1], offset: ?>> loc(#loc45)
      %cast_21 = memref.cast %11 : memref<1xi8> to memref<?xi8, strided<[1], offset: ?>> loc(#loc45)
      %40 = arith.select %39, %cast_20, %cast_21 : memref<?xi8, strided<[1], offset: ?>> loc(#loc45)
      %intptr_22 = memref.extract_aligned_pointer_as_index %12 : memref<5xi8> -> index loc(#loc45)
      %41 = arith.index_cast %intptr_22 : index to i64 loc(#loc45)
      %42 = llvm.inttoptr %41 : i64 to !llvm.ptr loc(#loc45)
      %intptr_23 = memref.extract_aligned_pointer_as_index %40 : memref<?xi8, strided<[1], offset: ?>> -> index loc(#loc45)
      %43 = arith.index_cast %intptr_23 : index to i64 loc(#loc45)
      %44 = llvm.inttoptr %43 : i64 to !llvm.ptr loc(#loc45)
      %45 = llvm.call @printf(%42, %38, %44) vararg(!llvm.func<i32 (ptr, ...)>) : (!llvm.ptr, i32, !llvm.ptr) -> i32 loc(#loc45)
    } loc(#loc45)
    %intptr_17 = memref.extract_aligned_pointer_as_index %5 : memref<3xi8> -> index loc(#loc38)
    %20 = arith.index_cast %intptr_17 : index to i64 loc(#loc38)
    %21 = llvm.inttoptr %20 : i64 to !llvm.ptr loc(#loc38)
    %22 = llvm.call @printf(%21) vararg(!llvm.func<i32 (ptr, ...)>) : (!llvm.ptr) -> i32 loc(#loc38)
    %intptr_18 = memref.extract_aligned_pointer_as_index %6 : memref<8xi8> -> index loc(#loc39)
    %23 = arith.index_cast %intptr_18 : index to i64 loc(#loc39)
    %24 = llvm.inttoptr %23 : i64 to !llvm.ptr loc(#loc39)
    %25 = llvm.call @printf(%24) vararg(!llvm.func<i32 (ptr, ...)>) : (!llvm.ptr) -> i32 loc(#loc39)
    scf.for unsigned %arg0 = %c0 to %c8 step %c1 {
      %35 = arith.index_cast %arg0 : index to i32 loc(#loc46)
      %36 = arith.extui %35 : i32 to i64 loc(#loc46)
      %37 = arith.index_cast %36 : i64 to index loc(#loc46)
      %38 = memref.load %alloca_0[%37] : memref<8xi32> loc(#loc46)
      %39 = arith.cmpi ult, %35, %c7_i32 : i32 loc(#loc46)
      %cast_20 = memref.cast %10 : memref<3xi8> to memref<?xi8, strided<[1], offset: ?>> loc(#loc46)
      %cast_21 = memref.cast %11 : memref<1xi8> to memref<?xi8, strided<[1], offset: ?>> loc(#loc46)
      %40 = arith.select %39, %cast_20, %cast_21 : memref<?xi8, strided<[1], offset: ?>> loc(#loc46)
      %intptr_22 = memref.extract_aligned_pointer_as_index %12 : memref<5xi8> -> index loc(#loc46)
      %41 = arith.index_cast %intptr_22 : index to i64 loc(#loc46)
      %42 = llvm.inttoptr %41 : i64 to !llvm.ptr loc(#loc46)
      %intptr_23 = memref.extract_aligned_pointer_as_index %40 : memref<?xi8, strided<[1], offset: ?>> -> index loc(#loc46)
      %43 = arith.index_cast %intptr_23 : index to i64 loc(#loc46)
      %44 = llvm.inttoptr %43 : i64 to !llvm.ptr loc(#loc46)
      %45 = llvm.call @printf(%42, %38, %44) vararg(!llvm.func<i32 (ptr, ...)>) : (!llvm.ptr, i32, !llvm.ptr) -> i32 loc(#loc46)
    } loc(#loc46)
    %26 = llvm.call @printf(%21) vararg(!llvm.func<i32 (ptr, ...)>) : (!llvm.ptr) -> i32 loc(#loc40)
    %intptr_19 = memref.extract_aligned_pointer_as_index %7 : memref<8xi8> -> index loc(#loc41)
    %27 = arith.index_cast %intptr_19 : index to i64 loc(#loc41)
    %28 = llvm.inttoptr %27 : i64 to !llvm.ptr loc(#loc41)
    %29 = llvm.call @printf(%28) vararg(!llvm.func<i32 (ptr, ...)>) : (!llvm.ptr) -> i32 loc(#loc41)
    scf.for unsigned %arg0 = %c0 to %c8 step %c1 {
      %35 = arith.index_cast %arg0 : index to i32 loc(#loc47)
      %36 = arith.extui %35 : i32 to i64 loc(#loc47)
      %37 = arith.index_cast %36 : i64 to index loc(#loc47)
      %38 = memref.load %alloca_2[%37] : memref<8xi32> loc(#loc47)
      %39 = arith.cmpi ult, %35, %c7_i32 : i32 loc(#loc47)
      %cast_20 = memref.cast %10 : memref<3xi8> to memref<?xi8, strided<[1], offset: ?>> loc(#loc47)
      %cast_21 = memref.cast %11 : memref<1xi8> to memref<?xi8, strided<[1], offset: ?>> loc(#loc47)
      %40 = arith.select %39, %cast_20, %cast_21 : memref<?xi8, strided<[1], offset: ?>> loc(#loc47)
      %intptr_22 = memref.extract_aligned_pointer_as_index %12 : memref<5xi8> -> index loc(#loc47)
      %41 = arith.index_cast %intptr_22 : index to i64 loc(#loc47)
      %42 = llvm.inttoptr %41 : i64 to !llvm.ptr loc(#loc47)
      %intptr_23 = memref.extract_aligned_pointer_as_index %40 : memref<?xi8, strided<[1], offset: ?>> -> index loc(#loc47)
      %43 = arith.index_cast %intptr_23 : index to i64 loc(#loc47)
      %44 = llvm.inttoptr %43 : i64 to !llvm.ptr loc(#loc47)
      %45 = llvm.call @printf(%42, %38, %44) vararg(!llvm.func<i32 (ptr, ...)>) : (!llvm.ptr, i32, !llvm.ptr) -> i32 loc(#loc47)
    } loc(#loc47)
    %30 = llvm.call @printf(%21) vararg(!llvm.func<i32 (ptr, ...)>) : (!llvm.ptr) -> i32 loc(#loc42)
    %31 = scf.for unsigned %arg0 = %c0 to %c8 step %c1 iter_args(%arg1 = %c1_i8) -> (i8) {
      %35 = arith.index_cast %arg0 : index to i32 loc(#loc48)
      %36 = arith.extui %35 : i32 to i64 loc(#loc50)
      %37 = arith.index_cast %36 : i64 to index loc(#loc50)
      %38 = memref.load %alloca_1[%37] : memref<8xi32> loc(#loc50)
      %39 = memref.load %alloca_2[%37] : memref<8xi32> loc(#loc50)
      %40 = arith.cmpi ne, %38, %39 : i32 loc(#loc50)
      %41 = arith.select %40, %c0_i8, %arg1 : i8 loc(#loc50)
      scf.if %40 {
        %42 = memref.load %alloca_1[%37] : memref<8xi32> loc(#loc55)
        %43 = memref.load %alloca_2[%37] : memref<8xi32> loc(#loc55)
        %intptr_20 = memref.extract_aligned_pointer_as_index %9 : memref<36xi8> -> index loc(#loc55)
        %44 = arith.index_cast %intptr_20 : index to i64 loc(#loc55)
        %45 = llvm.inttoptr %44 : i64 to !llvm.ptr loc(#loc55)
        %46 = llvm.call @printf(%45, %35, %42, %43) vararg(!llvm.func<i32 (ptr, ...)>) : (!llvm.ptr, i32, i32, i32) -> i32 loc(#loc55)
      } loc(#loc50)
      scf.yield %41 : i8 loc(#loc48)
    } loc(#loc48)
    %32 = arith.trunci %31 : i8 to i1 loc(#loc44)
    scf.if %32 {
      %intptr_20 = memref.extract_aligned_pointer_as_index %8 : memref<30xi8> -> index loc(#loc49)
      %35 = arith.index_cast %intptr_20 : index to i64 loc(#loc49)
      %36 = llvm.inttoptr %35 : i64 to !llvm.ptr loc(#loc49)
      %37 = llvm.call @printf(%36) vararg(!llvm.func<i32 (ptr, ...)>) : (!llvm.ptr) -> i32 loc(#loc49)
    } loc(#loc44)
    %33 = arith.xori %32, %true : i1 loc(#loc43)
    %34 = arith.extui %33 : i1 to i32 loc(#loc43)
    return %34 : i32 loc(#loc43)
  } loc(#loc31)
  func.func private @llvm.memcpy.p0.p0.i64(memref<?xi8, strided<[1], offset: ?>> {loom.noalias}, memref<?xi8, strided<[1], offset: ?>> {loom.noalias}, i64, i1) loc(#loc10)
  llvm.func @printf(!llvm.ptr {llvm.noundef}, ...) -> i32 attributes {frame_pointer = #llvm.framePointerKind<all>, passthrough = [["no-trapping-math", "true"], ["stack-protector-buffer-size", "8"], ["target-cpu", "x86-64"]], target_cpu = "x86-64", target_features = #llvm.target_features<["+cmov", "+cx8", "+fxsr", "+mmx", "+sse", "+sse2", "+x87"]>, tune_cpu = "generic"} loc(#loc10)
} loc(#loc)
#di_basic_type1 = #llvm.di_basic_type<tag = DW_TAG_base_type, name = "int", sizeInBits = 32, encoding = DW_ATE_signed>
#di_file1 = #llvm.di_file<"tests/app/axpy/main.cpp" in "/home/sihao/github.com/PolyArch/loom">
#loc = loc("tests/app/axpy/axpy.cpp":0:0)
#loc2 = loc("tests/app/axpy/axpy.cpp":12:0)
#loc3 = loc("tests/app/axpy/axpy.cpp":13:0)
#loc4 = loc("tests/app/axpy/axpy.cpp":15:0)
#loc6 = loc("tests/app/axpy/axpy.cpp":26:0)
#loc7 = loc("tests/app/axpy/axpy.cpp":27:0)
#loc8 = loc("tests/app/axpy/axpy.cpp":29:0)
#loc9 = loc("tests/app/axpy/main.cpp":7:0)
#loc10 = loc(unknown)
#loc11 = loc("tests/app/axpy/main.cpp":12:0)
#loc12 = loc("tests/app/axpy/main.cpp":13:0)
#loc13 = loc("tests/app/axpy/main.cpp":20:0)
#loc14 = loc("tests/app/axpy/main.cpp":23:0)
#loc15 = loc("tests/app/axpy/main.cpp":26:0)
#loc16 = loc("tests/app/axpy/main.cpp":27:0)
#loc17 = loc("tests/app/axpy/main.cpp":28:0)
#loc18 = loc("tests/app/axpy/main.cpp":29:0)
#loc19 = loc("tests/app/axpy/main.cpp":30:0)
#loc20 = loc("tests/app/axpy/main.cpp":31:0)
#loc21 = loc("tests/app/axpy/main.cpp":32:0)
#loc22 = loc("tests/app/axpy/main.cpp":33:0)
#loc23 = loc("tests/app/axpy/main.cpp":34:0)
#loc24 = loc("tests/app/axpy/main.cpp":35:0)
#loc25 = loc("tests/app/axpy/main.cpp":39:0)
#loc26 = loc("tests/app/axpy/main.cpp":40:0)
#loc27 = loc("tests/app/axpy/main.cpp":41:0)
#loc28 = loc("tests/app/axpy/main.cpp":46:0)
#loc29 = loc("tests/app/axpy/main.cpp":47:0)
#loc30 = loc("tests/app/axpy/main.cpp":50:0)
#di_compile_unit1 = #llvm.di_compile_unit<id = distinct[3]<>, sourceLanguage = DW_LANG_C_plus_plus_14, file = #di_file1, producer = "clang version 23.0.0git (https://github.com/llvm/llvm-project.git b7c1a6f8b447fba6fff47d309eb7ba1bc22e8c53)", isOptimized = false, emissionKind = Full, nameTableKind = None>
#di_subroutine_type = #llvm.di_subroutine_type<types = #di_basic_type1>
#di_subprogram = #llvm.di_subprogram<id = distinct[4]<>, compileUnit = #di_compile_unit1, scope = #di_file1, name = "main", file = #di_file1, line = 7, scopeLine = 7, subprogramFlags = Definition, type = #di_subroutine_type>
#di_lexical_block = #llvm.di_lexical_block<scope = #di_subprogram, file = #di_file1, line = 28>
#di_lexical_block1 = #llvm.di_lexical_block<scope = #di_subprogram, file = #di_file1, line = 31>
#di_lexical_block2 = #llvm.di_lexical_block<scope = #di_subprogram, file = #di_file1, line = 34>
#di_lexical_block3 = #llvm.di_lexical_block<scope = #di_subprogram, file = #di_file1, line = 39>
#di_lexical_block4 = #llvm.di_lexical_block<scope = #di_subprogram, file = #di_file1, line = 46>
#loc31 = loc(fused<#di_subprogram>[#loc9])
#loc32 = loc(fused<#di_subprogram>[#loc11])
#loc33 = loc(fused<#di_subprogram>[#loc12])
#loc34 = loc(fused<#di_subprogram>[#loc13])
#loc35 = loc(fused<#di_subprogram>[#loc14])
#loc36 = loc(fused<#di_subprogram>[#loc15])
#loc37 = loc(fused<#di_subprogram>[#loc16])
#loc38 = loc(fused<#di_subprogram>[#loc18])
#loc39 = loc(fused<#di_subprogram>[#loc19])
#loc40 = loc(fused<#di_subprogram>[#loc21])
#loc41 = loc(fused<#di_subprogram>[#loc22])
#loc42 = loc(fused<#di_subprogram>[#loc24])
#loc43 = loc(fused<#di_subprogram>[#loc30])
#di_lexical_block5 = #llvm.di_lexical_block<scope = #di_lexical_block, file = #di_file1, line = 28>
#di_lexical_block6 = #llvm.di_lexical_block<scope = #di_lexical_block1, file = #di_file1, line = 31>
#di_lexical_block7 = #llvm.di_lexical_block<scope = #di_lexical_block2, file = #di_file1, line = 34>
#di_lexical_block8 = #llvm.di_lexical_block<scope = #di_lexical_block3, file = #di_file1, line = 39>
#di_lexical_block9 = #llvm.di_lexical_block<scope = #di_lexical_block4, file = #di_file1, line = 46>
#loc44 = loc(fused<#di_lexical_block4>[#loc28])
#di_lexical_block10 = #llvm.di_lexical_block<scope = #di_lexical_block8, file = #di_file1, line = 39>
#loc45 = loc(fused<#di_lexical_block5>[#loc17])
#loc46 = loc(fused<#di_lexical_block6>[#loc20])
#loc47 = loc(fused<#di_lexical_block7>[#loc23])
#loc48 = loc(fused<#di_lexical_block8>[#loc25])
#loc49 = loc(fused<#di_lexical_block9>[#loc29])
#di_lexical_block11 = #llvm.di_lexical_block<scope = #di_lexical_block10, file = #di_file1, line = 40>
#di_lexical_block12 = #llvm.di_lexical_block<scope = #di_lexical_block11, file = #di_file1, line = 40>
#loc50 = loc(fused<#di_lexical_block11>[#loc26])
#di_lexical_block13 = #llvm.di_lexical_block<scope = #di_subprogram1, file = #di_file, line = 12>
#di_lexical_block14 = #llvm.di_lexical_block<scope = #di_subprogram2, file = #di_file, line = 26>
#loc52 = loc(fused<#di_subprogram1>[#loc4])
#loc54 = loc(fused<#di_subprogram2>[#loc8])
#loc55 = loc(fused<#di_lexical_block12>[#loc27])
#di_lexical_block15 = #llvm.di_lexical_block<scope = #di_lexical_block13, file = #di_file, line = 12>
#di_lexical_block16 = #llvm.di_lexical_block<scope = #di_lexical_block14, file = #di_file, line = 26>
#di_lexical_block17 = #llvm.di_lexical_block<scope = #di_lexical_block15, file = #di_file, line = 12>
#di_lexical_block18 = #llvm.di_lexical_block<scope = #di_lexical_block16, file = #di_file, line = 26>
#loc56 = loc(fused<#di_lexical_block15>[#loc2])
#loc57 = loc(fused<#di_lexical_block16>[#loc6])
#loc58 = loc(fused<#di_lexical_block17>[#loc3])
#loc59 = loc(fused<#di_lexical_block18>[#loc7])
