#di_basic_type = #llvm.di_basic_type<tag = DW_TAG_base_type, name = "float", sizeInBits = 32, encoding = DW_ATE_float>
#di_basic_type1 = #llvm.di_basic_type<tag = DW_TAG_base_type, name = "unsigned int", sizeInBits = 32, encoding = DW_ATE_unsigned>
#di_basic_type2 = #llvm.di_basic_type<tag = DW_TAG_base_type, name = "int", sizeInBits = 32, encoding = DW_ATE_signed>
#di_file = #llvm.di_file<"tests/app/fir_filter/fir_filter.cpp" in "/home/sihao/github.com/PolyArch/loom">
#di_file1 = #llvm.di_file<"tests/app/fir_filter/main.cpp" in "/home/sihao/github.com/PolyArch/loom">
#di_null_type = #llvm.di_null_type
#loc1 = loc("tests/app/fir_filter/fir_filter.cpp":8:0)
#loc11 = loc("tests/app/fir_filter/fir_filter.cpp":26:0)
#loc41 = loc("tests/app/fir_filter/main.cpp":53:0)
#di_compile_unit = #llvm.di_compile_unit<id = distinct[0]<>, sourceLanguage = DW_LANG_C_plus_plus_14, file = #di_file, producer = "clang version 23.0.0git (https://github.com/llvm/llvm-project.git b7c1a6f8b447fba6fff47d309eb7ba1bc22e8c53)", isOptimized = false, emissionKind = Full, nameTableKind = None>
#di_compile_unit1 = #llvm.di_compile_unit<id = distinct[1]<>, sourceLanguage = DW_LANG_C_plus_plus_14, file = #di_file1, producer = "clang version 23.0.0git (https://github.com/llvm/llvm-project.git b7c1a6f8b447fba6fff47d309eb7ba1bc22e8c53)", isOptimized = false, emissionKind = Full, nameTableKind = None>
#di_derived_type = #llvm.di_derived_type<tag = DW_TAG_const_type, baseType = #di_basic_type>
#di_derived_type1 = #llvm.di_derived_type<tag = DW_TAG_pointer_type, baseType = #di_basic_type, sizeInBits = 64>
#di_derived_type2 = #llvm.di_derived_type<tag = DW_TAG_typedef, name = "__uint32_t", baseType = #di_basic_type1>
#di_subroutine_type = #llvm.di_subroutine_type<types = #di_basic_type2>
#di_derived_type3 = #llvm.di_derived_type<tag = DW_TAG_pointer_type, baseType = #di_derived_type, sizeInBits = 64>
#di_derived_type4 = #llvm.di_derived_type<tag = DW_TAG_restrict_type, baseType = #di_derived_type1>
#di_derived_type5 = #llvm.di_derived_type<tag = DW_TAG_typedef, name = "uint32_t", baseType = #di_derived_type2>
#di_subprogram = #llvm.di_subprogram<id = distinct[2]<>, compileUnit = #di_compile_unit1, scope = #di_file1, name = "main", file = #di_file1, line = 7, scopeLine = 7, subprogramFlags = Definition, type = #di_subroutine_type>
#di_derived_type6 = #llvm.di_derived_type<tag = DW_TAG_restrict_type, baseType = #di_derived_type3>
#di_lexical_block4 = #llvm.di_lexical_block<scope = #di_subprogram, file = #di_file1, line = 53>
#di_lexical_block10 = #llvm.di_lexical_block<scope = #di_lexical_block4, file = #di_file1, line = 53>
#di_subroutine_type1 = #llvm.di_subroutine_type<types = #di_null_type, #di_derived_type6, #di_derived_type6, #di_derived_type4, #di_derived_type5, #di_derived_type5>
#di_subprogram1 = #llvm.di_subprogram<id = distinct[3]<>, compileUnit = #di_compile_unit, scope = #di_file, name = "fir_filter_cpu", linkageName = "_Z14fir_filter_cpuPKfS0_Pfjj", file = #di_file, line = 8, scopeLine = 10, subprogramFlags = Definition, type = #di_subroutine_type1>
#di_subprogram2 = #llvm.di_subprogram<id = distinct[4]<>, compileUnit = #di_compile_unit, scope = #di_file, name = "fir_filter_dsa", linkageName = "_Z14fir_filter_dsaPKfS0_Pfjj", file = #di_file, line = 26, scopeLine = 28, subprogramFlags = Definition, type = #di_subroutine_type1>
#loc68 = loc(fused<#di_lexical_block10>[#loc41])
#loc71 = loc(fused<#di_subprogram1>[#loc1])
#loc73 = loc(fused<#di_subprogram2>[#loc11])
module attributes {dlti.dl_spec = #dlti.dl_spec<!llvm.ptr<270> = dense<32> : vector<4xi64>, !llvm.ptr<271> = dense<32> : vector<4xi64>, !llvm.ptr<272> = dense<64> : vector<4xi64>, i64 = dense<64> : vector<2xi64>, i128 = dense<128> : vector<2xi64>, f80 = dense<128> : vector<2xi64>, !llvm.ptr = dense<64> : vector<4xi64>, i1 = dense<8> : vector<2xi64>, i8 = dense<8> : vector<2xi64>, i16 = dense<16> : vector<2xi64>, i32 = dense<32> : vector<2xi64>, f16 = dense<16> : vector<2xi64>, f64 = dense<64> : vector<2xi64>, f128 = dense<128> : vector<2xi64>, "dlti.endianness" = "little", "dlti.mangling_mode" = "e", "dlti.legal_int_widths" = array<i32: 8, 16, 32, 64>, "dlti.stack_alignment" = 128 : i64>, llvm.ident = "clang version 23.0.0git (https://github.com/llvm/llvm-project.git b7c1a6f8b447fba6fff47d309eb7ba1bc22e8c53)", llvm.module_asm = [], llvm.target_triple = "x86_64-unknown-linux-gnu"} {
  memref.global constant @".str" : memref<14xi8> = dense<[108, 111, 111, 109, 46, 114, 101, 100, 117, 99, 101, 61, 43, 0]> loc(#loc)
  memref.global constant @".str.1" : memref<36xi8> = dense<[116, 101, 115, 116, 115, 47, 97, 112, 112, 47, 102, 105, 114, 95, 102, 105, 108, 116, 101, 114, 47, 102, 105, 114, 95, 102, 105, 108, 116, 101, 114, 46, 99, 112, 112, 0]> loc(#loc)
  memref.global constant @".str.2" : memref<21xi8> = dense<[108, 111, 111, 109, 46, 116, 97, 114, 103, 101, 116, 61, 116, 101, 109, 112, 111, 114, 97, 108, 0]> loc(#loc)
  memref.global constant @".str.3" : memref<22xi8> = dense<[108, 111, 111, 109, 46, 97, 99, 99, 101, 108, 61, 102, 105, 114, 95, 102, 105, 108, 116, 101, 114, 0]> loc(#loc)
  memref.global constant @__const.main.input : memref<8xf32> = dense<[1.000000e+00, 2.000000e+00, 3.000000e+00, 4.000000e+00, 5.000000e+00, 6.000000e+00, 7.000000e+00, 8.000000e+00]> {alignment = 16 : i64} loc(#loc)
  memref.global constant @__const.main.coeffs : memref<3xf32> = dense<[2.500000e-01, 5.000000e-01, 2.500000e-01]> {alignment = 4 : i64} loc(#loc)
  memref.global constant @".str.4" : memref<46xi8> = dense<[70, 73, 82, 32, 70, 105, 108, 116, 101, 114, 32, 82, 101, 115, 117, 108, 116, 115, 32, 40, 51, 45, 116, 97, 112, 32, 97, 118, 101, 114, 97, 103, 105, 110, 103, 32, 102, 105, 108, 116, 101, 114, 41, 58, 10, 0]> {alignment = 1 : i64} loc(#loc)
  memref.global constant @".str.1.5" : memref<14xi8> = dense<[73, 110, 112, 117, 116, 58, 32, 32, 32, 32, 32, 32, 91, 0]> {alignment = 1 : i64} loc(#loc)
  memref.global constant @".str.2.8" : memref<7xi8> = dense<[37, 46, 49, 102, 37, 115, 0]> {alignment = 1 : i64} loc(#loc)
  memref.global constant @".str.3.6" : memref<3xi8> = dense<[44, 32, 0]> {alignment = 1 : i64} loc(#loc)
  memref.global constant @".str.4.7" : memref<1xi8> = dense<0> {alignment = 1 : i64} loc(#loc)
  memref.global constant @".str.5" : memref<3xi8> = dense<[93, 10, 0]> {alignment = 1 : i64} loc(#loc)
  memref.global constant @".str.6" : memref<14xi8> = dense<[67, 111, 101, 102, 102, 115, 58, 32, 32, 32, 32, 32, 91, 0]> {alignment = 1 : i64} loc(#loc)
  memref.global constant @".str.7" : memref<7xi8> = dense<[37, 46, 50, 102, 37, 115, 0]> {alignment = 1 : i64} loc(#loc)
  memref.global constant @".str.8" : memref<14xi8> = dense<[67, 80, 85, 32, 79, 117, 116, 112, 117, 116, 58, 32, 91, 0]> {alignment = 1 : i64} loc(#loc)
  memref.global constant @".str.9" : memref<14xi8> = dense<[68, 83, 65, 32, 79, 117, 116, 112, 117, 116, 58, 32, 91, 0]> {alignment = 1 : i64} loc(#loc)
  memref.global constant @".str.10" : memref<30xi8> = dense<[80, 65, 83, 83, 69, 68, 58, 32, 65, 108, 108, 32, 114, 101, 115, 117, 108, 116, 115, 32, 99, 111, 114, 114, 101, 99, 116, 33, 10, 0]> {alignment = 1 : i64} loc(#loc)
  memref.global constant @".str.11" : memref<27xi8> = dense<[70, 65, 73, 76, 69, 68, 58, 32, 82, 101, 115, 117, 108, 116, 115, 32, 109, 105, 115, 109, 97, 116, 99, 104, 33, 10, 0]> {alignment = 1 : i64} loc(#loc)
  llvm.module_flags [#llvm.mlir.module_flag<max, "Dwarf Version", 5 : i32>, #llvm.mlir.module_flag<warning, "Debug Info Version", 3 : i32>, #llvm.mlir.module_flag<error, "wchar_size", 4 : i32>, #llvm.mlir.module_flag<min, "PIC Level", 2 : i32>, #llvm.mlir.module_flag<max, "PIE Level", 2 : i32>, #llvm.mlir.module_flag<max, "uwtable", 2 : i32>, #llvm.mlir.module_flag<max, "frame-pointer", 2 : i32>] loc(#loc)
  func.func @_Z14fir_filter_cpuPKfS0_Pfjj(%arg0: memref<?xf32, strided<[1], offset: ?>> {loom.noalias} loc(fused<#di_subprogram1>[#loc1]), %arg1: memref<?xf32, strided<[1], offset: ?>> {loom.noalias} loc(fused<#di_subprogram1>[#loc1]), %arg2: memref<?xf32, strided<[1], offset: ?>> {loom.noalias} loc(fused<#di_subprogram1>[#loc1]), %arg3: i32 loc(fused<#di_subprogram1>[#loc1]), %arg4: i32 loc(fused<#di_subprogram1>[#loc1])) {
    %c1 = arith.constant 1 : index loc(#loc2)
    %c0_i32 = arith.constant 0 : i32 loc(#loc2)
    %cst = arith.constant 0.000000e+00 : f32 loc(#loc2)
    %c0 = arith.constant 0 : index loc(#loc2)
    %0 = arith.index_cast %arg3 : i32 to index loc(#loc81)
    scf.for unsigned %arg5 = %c0 to %0 step %c1 {
      %1 = arith.index_cast %arg5 : index to i32 loc(#loc81)
      %2 = arith.index_cast %arg4 : i32 to index loc(#loc85)
      %3 = scf.for unsigned %arg6 = %c0 to %2 step %c1 iter_args(%arg7 = %cst) -> (f32) {
        %6 = arith.index_cast %arg6 : index to i32 loc(#loc85)
        %7 = arith.subi %1, %6 : i32 loc(#loc87)
        %8 = arith.cmpi sge, %7, %c0_i32 : i32 loc(#loc90)
        %9 = scf.if %8 -> (f32) {
          %10 = arith.extui %6 : i32 to i64 loc(#loc92)
          %11 = arith.index_cast %10 : i64 to index loc(#loc92)
          %12 = memref.load %arg1[%11] : memref<?xf32, strided<[1], offset: ?>> loc(#loc92)
          %13 = arith.index_cast %7 : i32 to index loc(#loc92)
          %14 = memref.load %arg0[%13] : memref<?xf32, strided<[1], offset: ?>> loc(#loc92)
          %15 = math.fma %12, %14, %arg7 : f32 loc(#loc92)
          scf.yield %15 : f32 loc(#loc88)
        } else {
          scf.yield %arg7 : f32 loc(#loc90)
        } loc(#loc90)
        scf.yield %9 : f32 loc(#loc85)
      } loc(#loc85)
      %4 = arith.extui %1 : i32 to i64 loc(#loc83)
      %5 = arith.index_cast %4 : i64 to index loc(#loc83)
      memref.store %3, %arg2[%5] : memref<?xf32, strided<[1], offset: ?>> loc(#loc83)
    } loc(#loc81)
    return loc(#loc72)
  } loc(#loc71)
  func.func private @llvm.fmuladd.f32(f32, f32, f32) -> f32 loc(#loc2)
  handshake.func @_Z14fir_filter_dsaPKfS0_Pfjj_esi(%arg0: memref<?xf32, strided<[1], offset: ?>> loc(fused<#di_subprogram2>[#loc11]), %arg1: memref<?xf32, strided<[1], offset: ?>> loc(fused<#di_subprogram2>[#loc11]), %arg2: memref<?xf32, strided<[1], offset: ?>> loc(fused<#di_subprogram2>[#loc11]), %arg3: i32 loc(fused<#di_subprogram2>[#loc11]), %arg4: i32 loc(fused<#di_subprogram2>[#loc11]), %arg5: i1 loc(fused<#di_subprogram2>[#loc11]), ...) -> i1 attributes {argNames = ["input", "coeffs", "output", "input_size", "num_taps", "start_token"], loom.annotations = ["loom.target=temporal", "loom.accel=fir_filter"], resNames = ["done_token"]} {
    %0 = handshake.join %arg5 : i1 loc(#loc73)
    %1 = handshake.join %0 : none loc(#loc73)
    %2 = handshake.constant %1 {value = 1 : index} : index loc(#loc2)
    %3 = handshake.constant %1 {value = 0 : index} : index loc(#loc2)
    %4 = handshake.constant %1 {value = 0 : i32} : i32 loc(#loc2)
    %5 = handshake.constant %1 {value = 0.000000e+00 : f32} : f32 loc(#loc2)
    %6 = arith.index_cast %arg3 : i32 to index loc(#loc82)
    %index, %willContinue = dataflow.stream %3, %2, %6 {loom.annotations = ["loom.loop.parallel degree=4 schedule=0"]} loc(#loc82)
    %afterValue, %afterCond = dataflow.gate %index, %willContinue : index, i1 -> index, i1 loc(#loc82)
    %7 = dataflow.invariant %afterCond, %1 : i1, none -> none loc(#loc82)
    %8 = arith.index_cast %afterValue : index to i32 loc(#loc82)
    %9 = dataflow.invariant %afterCond, %arg4 : i1, i32 -> i32 loc(#loc86)
    %10 = arith.index_cast %9 : i32 to index loc(#loc86)
    %11 = dataflow.invariant %afterCond, %3 : i1, index -> index loc(#loc86)
    %12 = dataflow.invariant %afterCond, %2 : i1, index -> index loc(#loc86)
    %index_0, %willContinue_1 = dataflow.stream %11, %12, %10 loc(#loc86)
    %afterValue_2, %afterCond_3 = dataflow.gate %index_0, %willContinue_1 : index, i1 -> index, i1 loc(#loc86)
    %13 = dataflow.invariant %afterCond, %5 : i1, f32 -> f32 loc(#loc86)
    %14 = dataflow.carry %willContinue_1, %13, %28 : i1, f32, f32 -> f32 loc(#loc86)
    %afterValue_4, %afterCond_5 = dataflow.gate %14, %willContinue_1 : f32, i1 -> f32, i1 loc(#loc86)
    handshake.sink %afterCond_5 : i1 loc(#loc86)
    %trueResult, %falseResult = handshake.cond_br %willContinue_1, %14 : f32 loc(#loc86)
    %15 = dataflow.invariant %afterCond_3, %7 : i1, none -> none loc(#loc86)
    %16 = arith.index_cast %afterValue_2 : index to i32 loc(#loc86)
    %17 = dataflow.invariant %afterCond_3, %8 : i1, i32 -> i32 loc(#loc89)
    %18 = arith.subi %17, %16 : i32 loc(#loc89)
    %19 = dataflow.invariant %afterCond, %4 : i1, i32 -> i32 loc(#loc91)
    %20 = arith.cmpi sge, %18, %19 : i32 loc(#loc91)
    %21 = arith.extui %16 : i32 to i64 loc(#loc93)
    %22 = arith.index_cast %21 : i64 to index loc(#loc93)
    %dataResult, %addressResults = handshake.load [%22] %31#0, %trueResult_13 : index, f32 loc(#loc93)
    %23 = arith.index_cast %18 : i32 to index loc(#loc93)
    %dataResult_6, %addressResults_7 = handshake.load [%23] %32#0, %trueResult_21 : index, f32 loc(#loc93)
    %24 = math.fma %dataResult, %dataResult_6, %afterValue_4 : f32 loc(#loc93)
    %25 = handshake.constant %15 {value = 0 : index} : index loc(#loc91)
    %26 = handshake.constant %15 {value = 1 : index} : index loc(#loc91)
    %27 = arith.select %20, %26, %25 : index loc(#loc91)
    %28 = handshake.mux %27 [%afterValue_4, %24] : index, f32 loc(#loc91)
    %29 = arith.extui %8 : i32 to i64 loc(#loc84)
    %30 = arith.index_cast %29 : i64 to index loc(#loc84)
    %dataResult_8, %addressResult = handshake.store [%30] %falseResult, %trueResult_15 : index, f32 loc(#loc84)
    %31:2 = handshake.extmemory[ld = 1, st = 0] (%arg1 : memref<?xf32, strided<[1], offset: ?>>) (%addressResults) {id = 0 : i32} : (index) -> (f32, none) loc(#loc73)
    %32:2 = handshake.extmemory[ld = 1, st = 0] (%arg0 : memref<?xf32, strided<[1], offset: ?>>) (%addressResults_7) {id = 1 : i32} : (index) -> (f32, none) loc(#loc73)
    %33 = handshake.extmemory[ld = 0, st = 1] (%arg2 : memref<?xf32, strided<[1], offset: ?>>) (%dataResult_8, %addressResult) {id = 2 : i32} : (f32, index) -> none loc(#loc73)
    %34 = dataflow.carry %willContinue, %1, %falseResult_12 : i1, none, none -> none loc(#loc82)
    %trueResult_9, %falseResult_10 = handshake.cond_br %willContinue, %34 : none loc(#loc82)
    %35 = dataflow.carry %willContinue_1, %trueResult_9, %39 : i1, none, none -> none loc(#loc86)
    %trueResult_11, %falseResult_12 = handshake.cond_br %willContinue_1, %35 : none loc(#loc86)
    %trueResult_13, %falseResult_14 = handshake.cond_br %20, %trueResult_11 : none loc(#loc91)
    %36 = handshake.constant %trueResult_11 {value = 0 : index} : index loc(#loc91)
    %37 = handshake.constant %trueResult_11 {value = 1 : index} : index loc(#loc91)
    %38 = arith.select %20, %37, %36 : index loc(#loc91)
    %39 = handshake.mux %38 [%falseResult_14, %31#1] : index, none loc(#loc91)
    %40 = dataflow.carry %willContinue, %1, %33 : i1, none, none -> none loc(#loc82)
    %trueResult_15, %falseResult_16 = handshake.cond_br %willContinue, %40 : none loc(#loc82)
    %41 = dataflow.carry %willContinue, %1, %falseResult_20 : i1, none, none -> none loc(#loc82)
    %trueResult_17, %falseResult_18 = handshake.cond_br %willContinue, %41 : none loc(#loc82)
    %42 = dataflow.carry %willContinue_1, %trueResult_17, %46 : i1, none, none -> none loc(#loc86)
    %trueResult_19, %falseResult_20 = handshake.cond_br %willContinue_1, %42 : none loc(#loc86)
    %trueResult_21, %falseResult_22 = handshake.cond_br %20, %trueResult_19 : none loc(#loc91)
    %43 = handshake.constant %trueResult_19 {value = 0 : index} : index loc(#loc91)
    %44 = handshake.constant %trueResult_19 {value = 1 : index} : index loc(#loc91)
    %45 = arith.select %20, %44, %43 : index loc(#loc91)
    %46 = handshake.mux %45 [%falseResult_22, %32#1] : index, none loc(#loc91)
    %47 = handshake.join %falseResult_10, %falseResult_16, %falseResult_18 : none, none, none loc(#loc73)
    %48 = handshake.constant %47 {value = true} : i1 loc(#loc73)
    handshake.return %48 : i1 loc(#loc73)
  } loc(#loc73)
  handshake.func @_Z14fir_filter_dsaPKfS0_Pfjj(%arg0: memref<?xf32, strided<[1], offset: ?>> loc(fused<#di_subprogram2>[#loc11]), %arg1: memref<?xf32, strided<[1], offset: ?>> loc(fused<#di_subprogram2>[#loc11]), %arg2: memref<?xf32, strided<[1], offset: ?>> loc(fused<#di_subprogram2>[#loc11]), %arg3: i32 loc(fused<#di_subprogram2>[#loc11]), %arg4: i32 loc(fused<#di_subprogram2>[#loc11]), %arg5: none loc(fused<#di_subprogram2>[#loc11]), ...) -> none attributes {argNames = ["input", "coeffs", "output", "input_size", "num_taps", "start_token"], loom.annotations = ["loom.target=temporal", "loom.accel=fir_filter"], resNames = ["done_token"]} {
    %0 = handshake.join %arg5 : none loc(#loc73)
    %1 = handshake.constant %0 {value = 1 : index} : index loc(#loc2)
    %2 = handshake.constant %0 {value = 0 : index} : index loc(#loc2)
    %3 = handshake.constant %0 {value = 0 : i32} : i32 loc(#loc2)
    %4 = handshake.constant %0 {value = 0.000000e+00 : f32} : f32 loc(#loc2)
    %5 = arith.index_cast %arg3 : i32 to index loc(#loc82)
    %index, %willContinue = dataflow.stream %2, %1, %5 {loom.annotations = ["loom.loop.parallel degree=4 schedule=0"]} loc(#loc82)
    %afterValue, %afterCond = dataflow.gate %index, %willContinue : index, i1 -> index, i1 loc(#loc82)
    %6 = dataflow.invariant %afterCond, %0 : i1, none -> none loc(#loc82)
    %7 = arith.index_cast %afterValue : index to i32 loc(#loc82)
    %8 = dataflow.invariant %afterCond, %arg4 : i1, i32 -> i32 loc(#loc86)
    %9 = arith.index_cast %8 : i32 to index loc(#loc86)
    %10 = dataflow.invariant %afterCond, %2 : i1, index -> index loc(#loc86)
    %11 = dataflow.invariant %afterCond, %1 : i1, index -> index loc(#loc86)
    %index_0, %willContinue_1 = dataflow.stream %10, %11, %9 loc(#loc86)
    %afterValue_2, %afterCond_3 = dataflow.gate %index_0, %willContinue_1 : index, i1 -> index, i1 loc(#loc86)
    %12 = dataflow.invariant %afterCond, %4 : i1, f32 -> f32 loc(#loc86)
    %13 = dataflow.carry %willContinue_1, %12, %27 : i1, f32, f32 -> f32 loc(#loc86)
    %afterValue_4, %afterCond_5 = dataflow.gate %13, %willContinue_1 : f32, i1 -> f32, i1 loc(#loc86)
    handshake.sink %afterCond_5 : i1 loc(#loc86)
    %trueResult, %falseResult = handshake.cond_br %willContinue_1, %13 : f32 loc(#loc86)
    %14 = dataflow.invariant %afterCond_3, %6 : i1, none -> none loc(#loc86)
    %15 = arith.index_cast %afterValue_2 : index to i32 loc(#loc86)
    %16 = dataflow.invariant %afterCond_3, %7 : i1, i32 -> i32 loc(#loc89)
    %17 = arith.subi %16, %15 : i32 loc(#loc89)
    %18 = dataflow.invariant %afterCond, %3 : i1, i32 -> i32 loc(#loc91)
    %19 = arith.cmpi sge, %17, %18 : i32 loc(#loc91)
    %20 = arith.extui %15 : i32 to i64 loc(#loc93)
    %21 = arith.index_cast %20 : i64 to index loc(#loc93)
    %dataResult, %addressResults = handshake.load [%21] %30#0, %trueResult_13 : index, f32 loc(#loc93)
    %22 = arith.index_cast %17 : i32 to index loc(#loc93)
    %dataResult_6, %addressResults_7 = handshake.load [%22] %31#0, %trueResult_21 : index, f32 loc(#loc93)
    %23 = math.fma %dataResult, %dataResult_6, %afterValue_4 : f32 loc(#loc93)
    %24 = handshake.constant %14 {value = 0 : index} : index loc(#loc91)
    %25 = handshake.constant %14 {value = 1 : index} : index loc(#loc91)
    %26 = arith.select %19, %25, %24 : index loc(#loc91)
    %27 = handshake.mux %26 [%afterValue_4, %23] : index, f32 loc(#loc91)
    %28 = arith.extui %7 : i32 to i64 loc(#loc84)
    %29 = arith.index_cast %28 : i64 to index loc(#loc84)
    %dataResult_8, %addressResult = handshake.store [%29] %falseResult, %trueResult_15 : index, f32 loc(#loc84)
    %30:2 = handshake.extmemory[ld = 1, st = 0] (%arg1 : memref<?xf32, strided<[1], offset: ?>>) (%addressResults) {id = 0 : i32} : (index) -> (f32, none) loc(#loc73)
    %31:2 = handshake.extmemory[ld = 1, st = 0] (%arg0 : memref<?xf32, strided<[1], offset: ?>>) (%addressResults_7) {id = 1 : i32} : (index) -> (f32, none) loc(#loc73)
    %32 = handshake.extmemory[ld = 0, st = 1] (%arg2 : memref<?xf32, strided<[1], offset: ?>>) (%dataResult_8, %addressResult) {id = 2 : i32} : (f32, index) -> none loc(#loc73)
    %33 = dataflow.carry %willContinue, %0, %falseResult_12 : i1, none, none -> none loc(#loc82)
    %trueResult_9, %falseResult_10 = handshake.cond_br %willContinue, %33 : none loc(#loc82)
    %34 = dataflow.carry %willContinue_1, %trueResult_9, %38 : i1, none, none -> none loc(#loc86)
    %trueResult_11, %falseResult_12 = handshake.cond_br %willContinue_1, %34 : none loc(#loc86)
    %trueResult_13, %falseResult_14 = handshake.cond_br %19, %trueResult_11 : none loc(#loc91)
    %35 = handshake.constant %trueResult_11 {value = 0 : index} : index loc(#loc91)
    %36 = handshake.constant %trueResult_11 {value = 1 : index} : index loc(#loc91)
    %37 = arith.select %19, %36, %35 : index loc(#loc91)
    %38 = handshake.mux %37 [%falseResult_14, %30#1] : index, none loc(#loc91)
    %39 = dataflow.carry %willContinue, %0, %32 : i1, none, none -> none loc(#loc82)
    %trueResult_15, %falseResult_16 = handshake.cond_br %willContinue, %39 : none loc(#loc82)
    %40 = dataflow.carry %willContinue, %0, %falseResult_20 : i1, none, none -> none loc(#loc82)
    %trueResult_17, %falseResult_18 = handshake.cond_br %willContinue, %40 : none loc(#loc82)
    %41 = dataflow.carry %willContinue_1, %trueResult_17, %45 : i1, none, none -> none loc(#loc86)
    %trueResult_19, %falseResult_20 = handshake.cond_br %willContinue_1, %41 : none loc(#loc86)
    %trueResult_21, %falseResult_22 = handshake.cond_br %19, %trueResult_19 : none loc(#loc91)
    %42 = handshake.constant %trueResult_19 {value = 0 : index} : index loc(#loc91)
    %43 = handshake.constant %trueResult_19 {value = 1 : index} : index loc(#loc91)
    %44 = arith.select %19, %43, %42 : index loc(#loc91)
    %45 = handshake.mux %44 [%falseResult_22, %31#1] : index, none loc(#loc91)
    %46 = handshake.join %falseResult_10, %falseResult_16, %falseResult_18 : none, none, none loc(#loc73)
    handshake.return %46 : none loc(#loc74)
  } loc(#loc73)
  func.func private @llvm.var.annotation.p0.p0(memref<?xi8, strided<[1], offset: ?>>, memref<?xi8, strided<[1], offset: ?>>, memref<?xi8, strided<[1], offset: ?>>, i32, memref<?xi8, strided<[1], offset: ?>>) loc(#loc2)
  func.func @main() -> i32 {
    %true = arith.constant true loc(#loc2)
    %false = arith.constant false loc(#loc47)
    %0 = seq.const_clock  low loc(#loc47)
    %1 = ub.poison : i32 loc(#loc47)
    %c1_i32 = arith.constant 1 : i32 loc(#loc2)
    %c0_i32 = arith.constant 0 : i32 loc(#loc2)
    %c3 = arith.constant 3 : index loc(#loc2)
    %c8 = arith.constant 8 : index loc(#loc2)
    %c1 = arith.constant 1 : index loc(#loc2)
    %c2_i32 = arith.constant 2 : i32 loc(#loc2)
    %c7_i32 = arith.constant 7 : i32 loc(#loc2)
    %cst = arith.constant 9.99999974E-6 : f32 loc(#loc2)
    %c0 = arith.constant 0 : index loc(#loc2)
    %c8_i32 = arith.constant 8 : i32 loc(#loc2)
    %c3_i32 = arith.constant 3 : i32 loc(#loc2)
    %2 = memref.get_global @__const.main.input : memref<8xf32> loc(#loc2)
    %3 = memref.get_global @__const.main.coeffs : memref<3xf32> loc(#loc2)
    %4 = memref.get_global @".str.4" : memref<46xi8> loc(#loc2)
    %5 = memref.get_global @".str.1.5" : memref<14xi8> loc(#loc2)
    %6 = memref.get_global @".str.5" : memref<3xi8> loc(#loc2)
    %7 = memref.get_global @".str.6" : memref<14xi8> loc(#loc2)
    %8 = memref.get_global @".str.8" : memref<14xi8> loc(#loc2)
    %9 = memref.get_global @".str.9" : memref<14xi8> loc(#loc2)
    %10 = memref.get_global @".str.11" : memref<27xi8> loc(#loc2)
    %11 = memref.get_global @".str.10" : memref<30xi8> loc(#loc2)
    %12 = memref.get_global @".str.3.6" : memref<3xi8> loc(#loc2)
    %13 = memref.get_global @".str.4.7" : memref<1xi8> loc(#loc2)
    %14 = memref.get_global @".str.7" : memref<7xi8> loc(#loc2)
    %15 = memref.get_global @".str.2.8" : memref<7xi8> loc(#loc2)
    %alloca = memref.alloca() : memref<8xf32> loc(#loc2)
    %alloca_0 = memref.alloca() : memref<3xf32> loc(#loc2)
    %alloca_1 = memref.alloca() : memref<8xf32> loc(#loc2)
    %alloca_2 = memref.alloca() : memref<8xf32> loc(#loc2)
    scf.for %arg0 = %c0 to %c8 step %c1 {
      %42 = memref.load %2[%arg0] : memref<8xf32> loc(#loc48)
      memref.store %42, %alloca[%arg0] : memref<8xf32> loc(#loc48)
    } loc(#loc48)
    scf.for %arg0 = %c0 to %c3 step %c1 {
      %42 = memref.load %3[%arg0] : memref<3xf32> loc(#loc49)
      memref.store %42, %alloca_0[%arg0] : memref<3xf32> loc(#loc49)
    } loc(#loc49)
    %cast = memref.cast %alloca : memref<8xf32> to memref<?xf32, strided<[1], offset: ?>> loc(#loc50)
    %cast_3 = memref.cast %alloca_0 : memref<3xf32> to memref<?xf32, strided<[1], offset: ?>> loc(#loc50)
    %cast_4 = memref.cast %alloca_1 : memref<8xf32> to memref<?xf32, strided<[1], offset: ?>> loc(#loc50)
    call @_Z14fir_filter_cpuPKfS0_Pfjj(%cast, %cast_3, %cast_4, %c8_i32, %c3_i32) : (memref<?xf32, strided<[1], offset: ?>>, memref<?xf32, strided<[1], offset: ?>>, memref<?xf32, strided<[1], offset: ?>>, i32, i32) -> () loc(#loc50)
    %cast_5 = memref.cast %alloca_2 : memref<8xf32> to memref<?xf32, strided<[1], offset: ?>> loc(#loc51)
    %chanOutput, %ready = esi.wrap.vr %cast, %true : memref<?xf32, strided<[1], offset: ?>> loc(#loc51)
    %chanOutput_6, %ready_7 = esi.wrap.vr %cast_3, %true : memref<?xf32, strided<[1], offset: ?>> loc(#loc51)
    %chanOutput_8, %ready_9 = esi.wrap.vr %cast_5, %true : memref<?xf32, strided<[1], offset: ?>> loc(#loc51)
    %chanOutput_10, %ready_11 = esi.wrap.vr %c8_i32, %true : i32 loc(#loc51)
    %chanOutput_12, %ready_13 = esi.wrap.vr %c3_i32, %true : i32 loc(#loc51)
    %chanOutput_14, %ready_15 = esi.wrap.vr %true, %true : i1 loc(#loc51)
    %16 = handshake.esi_instance @_Z14fir_filter_dsaPKfS0_Pfjj_esi "_Z14fir_filter_dsaPKfS0_Pfjj_inst0" clk %0 rst %false(%chanOutput, %chanOutput_6, %chanOutput_8, %chanOutput_10, %chanOutput_12, %chanOutput_14) : (!esi.channel<memref<?xf32, strided<[1], offset: ?>>>, !esi.channel<memref<?xf32, strided<[1], offset: ?>>>, !esi.channel<memref<?xf32, strided<[1], offset: ?>>>, !esi.channel<i32>, !esi.channel<i32>, !esi.channel<i1>) -> !esi.channel<i1> loc(#loc51)
    %rawOutput, %valid = esi.unwrap.vr %16, %true : i1 loc(#loc51)
    %intptr = memref.extract_aligned_pointer_as_index %4 : memref<46xi8> -> index loc(#loc52)
    %17 = arith.index_cast %intptr : index to i64 loc(#loc52)
    %18 = llvm.inttoptr %17 : i64 to !llvm.ptr loc(#loc52)
    %19 = llvm.call @printf(%18) vararg(!llvm.func<i32 (ptr, ...)>) : (!llvm.ptr) -> i32 loc(#loc52)
    %intptr_16 = memref.extract_aligned_pointer_as_index %5 : memref<14xi8> -> index loc(#loc53)
    %20 = arith.index_cast %intptr_16 : index to i64 loc(#loc53)
    %21 = llvm.inttoptr %20 : i64 to !llvm.ptr loc(#loc53)
    %22 = llvm.call @printf(%21) vararg(!llvm.func<i32 (ptr, ...)>) : (!llvm.ptr) -> i32 loc(#loc53)
    scf.for unsigned %arg0 = %c0 to %c8 step %c1 {
      %42 = arith.index_cast %arg0 : index to i32 loc(#loc64)
      %43 = arith.extui %42 : i32 to i64 loc(#loc75)
      %44 = arith.index_cast %43 : i64 to index loc(#loc75)
      %45 = memref.load %alloca[%44] : memref<8xf32> loc(#loc75)
      %46 = arith.extf %45 : f32 to f64 loc(#loc75)
      %47 = arith.cmpi ult, %42, %c7_i32 : i32 loc(#loc75)
      %cast_21 = memref.cast %12 : memref<3xi8> to memref<?xi8, strided<[1], offset: ?>> loc(#loc75)
      %cast_22 = memref.cast %13 : memref<1xi8> to memref<?xi8, strided<[1], offset: ?>> loc(#loc75)
      %48 = arith.select %47, %cast_21, %cast_22 : memref<?xi8, strided<[1], offset: ?>> loc(#loc75)
      %intptr_23 = memref.extract_aligned_pointer_as_index %15 : memref<7xi8> -> index loc(#loc75)
      %49 = arith.index_cast %intptr_23 : index to i64 loc(#loc75)
      %50 = llvm.inttoptr %49 : i64 to !llvm.ptr loc(#loc75)
      %intptr_24 = memref.extract_aligned_pointer_as_index %48 : memref<?xi8, strided<[1], offset: ?>> -> index loc(#loc75)
      %51 = arith.index_cast %intptr_24 : index to i64 loc(#loc75)
      %52 = llvm.inttoptr %51 : i64 to !llvm.ptr loc(#loc75)
      %53 = llvm.call @printf(%50, %46, %52) vararg(!llvm.func<i32 (ptr, ...)>) : (!llvm.ptr, f64, !llvm.ptr) -> i32 loc(#loc75)
    } loc(#loc64)
    %intptr_17 = memref.extract_aligned_pointer_as_index %6 : memref<3xi8> -> index loc(#loc54)
    %23 = arith.index_cast %intptr_17 : index to i64 loc(#loc54)
    %24 = llvm.inttoptr %23 : i64 to !llvm.ptr loc(#loc54)
    %25 = llvm.call @printf(%24) vararg(!llvm.func<i32 (ptr, ...)>) : (!llvm.ptr) -> i32 loc(#loc54)
    %intptr_18 = memref.extract_aligned_pointer_as_index %7 : memref<14xi8> -> index loc(#loc55)
    %26 = arith.index_cast %intptr_18 : index to i64 loc(#loc55)
    %27 = llvm.inttoptr %26 : i64 to !llvm.ptr loc(#loc55)
    %28 = llvm.call @printf(%27) vararg(!llvm.func<i32 (ptr, ...)>) : (!llvm.ptr) -> i32 loc(#loc55)
    scf.for unsigned %arg0 = %c0 to %c3 step %c1 {
      %42 = arith.index_cast %arg0 : index to i32 loc(#loc65)
      %43 = arith.extui %42 : i32 to i64 loc(#loc76)
      %44 = arith.index_cast %43 : i64 to index loc(#loc76)
      %45 = memref.load %alloca_0[%44] : memref<3xf32> loc(#loc76)
      %46 = arith.extf %45 : f32 to f64 loc(#loc76)
      %47 = arith.cmpi ult, %42, %c2_i32 : i32 loc(#loc76)
      %cast_21 = memref.cast %12 : memref<3xi8> to memref<?xi8, strided<[1], offset: ?>> loc(#loc76)
      %cast_22 = memref.cast %13 : memref<1xi8> to memref<?xi8, strided<[1], offset: ?>> loc(#loc76)
      %48 = arith.select %47, %cast_21, %cast_22 : memref<?xi8, strided<[1], offset: ?>> loc(#loc76)
      %intptr_23 = memref.extract_aligned_pointer_as_index %14 : memref<7xi8> -> index loc(#loc76)
      %49 = arith.index_cast %intptr_23 : index to i64 loc(#loc76)
      %50 = llvm.inttoptr %49 : i64 to !llvm.ptr loc(#loc76)
      %intptr_24 = memref.extract_aligned_pointer_as_index %48 : memref<?xi8, strided<[1], offset: ?>> -> index loc(#loc76)
      %51 = arith.index_cast %intptr_24 : index to i64 loc(#loc76)
      %52 = llvm.inttoptr %51 : i64 to !llvm.ptr loc(#loc76)
      %53 = llvm.call @printf(%50, %46, %52) vararg(!llvm.func<i32 (ptr, ...)>) : (!llvm.ptr, f64, !llvm.ptr) -> i32 loc(#loc76)
    } loc(#loc65)
    %29 = llvm.call @printf(%24) vararg(!llvm.func<i32 (ptr, ...)>) : (!llvm.ptr) -> i32 loc(#loc56)
    %intptr_19 = memref.extract_aligned_pointer_as_index %8 : memref<14xi8> -> index loc(#loc57)
    %30 = arith.index_cast %intptr_19 : index to i64 loc(#loc57)
    %31 = llvm.inttoptr %30 : i64 to !llvm.ptr loc(#loc57)
    %32 = llvm.call @printf(%31) vararg(!llvm.func<i32 (ptr, ...)>) : (!llvm.ptr) -> i32 loc(#loc57)
    scf.for unsigned %arg0 = %c0 to %c8 step %c1 {
      %42 = arith.index_cast %arg0 : index to i32 loc(#loc66)
      %43 = arith.extui %42 : i32 to i64 loc(#loc77)
      %44 = arith.index_cast %43 : i64 to index loc(#loc77)
      %45 = memref.load %alloca_1[%44] : memref<8xf32> loc(#loc77)
      %46 = arith.extf %45 : f32 to f64 loc(#loc77)
      %47 = arith.cmpi ult, %42, %c7_i32 : i32 loc(#loc77)
      %cast_21 = memref.cast %12 : memref<3xi8> to memref<?xi8, strided<[1], offset: ?>> loc(#loc77)
      %cast_22 = memref.cast %13 : memref<1xi8> to memref<?xi8, strided<[1], offset: ?>> loc(#loc77)
      %48 = arith.select %47, %cast_21, %cast_22 : memref<?xi8, strided<[1], offset: ?>> loc(#loc77)
      %intptr_23 = memref.extract_aligned_pointer_as_index %14 : memref<7xi8> -> index loc(#loc77)
      %49 = arith.index_cast %intptr_23 : index to i64 loc(#loc77)
      %50 = llvm.inttoptr %49 : i64 to !llvm.ptr loc(#loc77)
      %intptr_24 = memref.extract_aligned_pointer_as_index %48 : memref<?xi8, strided<[1], offset: ?>> -> index loc(#loc77)
      %51 = arith.index_cast %intptr_24 : index to i64 loc(#loc77)
      %52 = llvm.inttoptr %51 : i64 to !llvm.ptr loc(#loc77)
      %53 = llvm.call @printf(%50, %46, %52) vararg(!llvm.func<i32 (ptr, ...)>) : (!llvm.ptr, f64, !llvm.ptr) -> i32 loc(#loc77)
    } loc(#loc66)
    %33 = llvm.call @printf(%24) vararg(!llvm.func<i32 (ptr, ...)>) : (!llvm.ptr) -> i32 loc(#loc58)
    %intptr_20 = memref.extract_aligned_pointer_as_index %9 : memref<14xi8> -> index loc(#loc59)
    %34 = arith.index_cast %intptr_20 : index to i64 loc(#loc59)
    %35 = llvm.inttoptr %34 : i64 to !llvm.ptr loc(#loc59)
    %36 = llvm.call @printf(%35) vararg(!llvm.func<i32 (ptr, ...)>) : (!llvm.ptr) -> i32 loc(#loc59)
    scf.for unsigned %arg0 = %c0 to %c8 step %c1 {
      %42 = arith.index_cast %arg0 : index to i32 loc(#loc67)
      %43 = arith.extui %42 : i32 to i64 loc(#loc78)
      %44 = arith.index_cast %43 : i64 to index loc(#loc78)
      %45 = memref.load %alloca_2[%44] : memref<8xf32> loc(#loc78)
      %46 = arith.extf %45 : f32 to f64 loc(#loc78)
      %47 = arith.cmpi ult, %42, %c7_i32 : i32 loc(#loc78)
      %cast_21 = memref.cast %12 : memref<3xi8> to memref<?xi8, strided<[1], offset: ?>> loc(#loc78)
      %cast_22 = memref.cast %13 : memref<1xi8> to memref<?xi8, strided<[1], offset: ?>> loc(#loc78)
      %48 = arith.select %47, %cast_21, %cast_22 : memref<?xi8, strided<[1], offset: ?>> loc(#loc78)
      %intptr_23 = memref.extract_aligned_pointer_as_index %14 : memref<7xi8> -> index loc(#loc78)
      %49 = arith.index_cast %intptr_23 : index to i64 loc(#loc78)
      %50 = llvm.inttoptr %49 : i64 to !llvm.ptr loc(#loc78)
      %intptr_24 = memref.extract_aligned_pointer_as_index %48 : memref<?xi8, strided<[1], offset: ?>> -> index loc(#loc78)
      %51 = arith.index_cast %intptr_24 : index to i64 loc(#loc78)
      %52 = llvm.inttoptr %51 : i64 to !llvm.ptr loc(#loc78)
      %53 = llvm.call @printf(%50, %46, %52) vararg(!llvm.func<i32 (ptr, ...)>) : (!llvm.ptr, f64, !llvm.ptr) -> i32 loc(#loc78)
    } loc(#loc67)
    %37 = llvm.call @printf(%24) vararg(!llvm.func<i32 (ptr, ...)>) : (!llvm.ptr) -> i32 loc(#loc60)
    %38:2 = scf.while (%arg0 = %c0_i32) : (i32) -> (i32, i8) {
      %42 = arith.cmpi ult, %arg0, %c8_i32 : i32 loc(#loc68)
      %43 = arith.cmpi uge, %arg0, %c8_i32 : i32 loc(#loc79)
      %44 = arith.extui %43 : i1 to i8 loc(#loc62)
      %45:2 = scf.if %42 -> (i32, i32) {
        %47 = arith.extui %arg0 : i32 to i64 loc(#loc80)
        %48 = arith.index_cast %47 : i64 to index loc(#loc80)
        %49 = memref.load %alloca_1[%48] : memref<8xf32> loc(#loc80)
        %50 = memref.load %alloca_2[%48] : memref<8xf32> loc(#loc80)
        %51 = arith.subf %49, %50 : f32 loc(#loc80)
        %52 = math.absf %51 : f32 loc(#loc80)
        %53 = arith.cmpf ogt, %52, %cst : f32 loc(#loc80)
        %54 = arith.xori %53, %true : i1 loc(#loc80)
        %55 = arith.extui %54 : i1 to i32 loc(#loc80)
        %56 = scf.if %53 -> (i32) {
          scf.yield %1 : i32 loc(#loc80)
        } else {
          %57 = arith.addi %arg0, %c1_i32 : i32 loc(#loc68)
          scf.yield %57 : i32 loc(#loc68)
        } loc(#loc80)
        scf.yield %56, %55 : i32, i32 loc(#loc62)
      } else {
        scf.yield %1, %c0_i32 : i32, i32 loc(#loc62)
      } loc(#loc62)
      %46 = arith.trunci %45#1 : i32 to i1 loc(#loc68)
      scf.condition(%46) %45#0, %44 : i32, i8 loc(#loc68)
    } do {
    ^bb0(%arg0: i32 loc(fused<#di_lexical_block10>[#loc41]), %arg1: i8 loc(fused<#di_lexical_block10>[#loc41])):
      scf.yield %arg0 : i32 loc(#loc68)
    } loc(#loc68)
    %39 = arith.trunci %38#1 : i8 to i1 loc(#loc63)
    %40 = arith.xori %39, %true : i1 loc(#loc63)
    %41 = arith.extui %40 : i1 to i32 loc(#loc63)
    scf.if %39 {
      %intptr_21 = memref.extract_aligned_pointer_as_index %11 : memref<30xi8> -> index loc(#loc69)
      %42 = arith.index_cast %intptr_21 : index to i64 loc(#loc69)
      %43 = llvm.inttoptr %42 : i64 to !llvm.ptr loc(#loc69)
      %44 = llvm.call @printf(%43) vararg(!llvm.func<i32 (ptr, ...)>) : (!llvm.ptr) -> i32 loc(#loc69)
    } else {
      %intptr_21 = memref.extract_aligned_pointer_as_index %10 : memref<27xi8> -> index loc(#loc70)
      %42 = arith.index_cast %intptr_21 : index to i64 loc(#loc70)
      %43 = llvm.inttoptr %42 : i64 to !llvm.ptr loc(#loc70)
      %44 = llvm.call @printf(%43) vararg(!llvm.func<i32 (ptr, ...)>) : (!llvm.ptr) -> i32 loc(#loc70)
    } loc(#loc63)
    return %41 : i32 loc(#loc61)
  } loc(#loc47)
  func.func private @llvm.memcpy.p0.p0.i64(memref<?xi8, strided<[1], offset: ?>> {loom.noalias}, memref<?xi8, strided<[1], offset: ?>> {loom.noalias}, i64, i1) loc(#loc2)
  llvm.func @printf(!llvm.ptr {llvm.noundef}, ...) -> i32 attributes {frame_pointer = #llvm.framePointerKind<all>, passthrough = [["no-trapping-math", "true"], ["stack-protector-buffer-size", "8"], ["target-cpu", "x86-64"]], target_cpu = "x86-64", target_features = #llvm.target_features<["+cmov", "+cx8", "+fxsr", "+mmx", "+sse", "+sse2", "+x87"]>, tune_cpu = "generic"} loc(#loc2)
  func.func private @llvm.fabs.f32(f32) -> f32 loc(#loc2)
} loc(#loc)
#loc = loc("tests/app/fir_filter/fir_filter.cpp":0:0)
#loc2 = loc(unknown)
#loc3 = loc("tests/app/fir_filter/fir_filter.cpp":11:0)
#loc4 = loc("tests/app/fir_filter/fir_filter.cpp":13:0)
#loc5 = loc("tests/app/fir_filter/fir_filter.cpp":14:0)
#loc6 = loc("tests/app/fir_filter/fir_filter.cpp":15:0)
#loc7 = loc("tests/app/fir_filter/fir_filter.cpp":16:0)
#loc8 = loc("tests/app/fir_filter/fir_filter.cpp":18:0)
#loc9 = loc("tests/app/fir_filter/fir_filter.cpp":19:0)
#loc10 = loc("tests/app/fir_filter/fir_filter.cpp":21:0)
#loc12 = loc("tests/app/fir_filter/fir_filter.cpp":31:0)
#loc13 = loc("tests/app/fir_filter/fir_filter.cpp":36:0)
#loc14 = loc("tests/app/fir_filter/fir_filter.cpp":37:0)
#loc15 = loc("tests/app/fir_filter/fir_filter.cpp":38:0)
#loc16 = loc("tests/app/fir_filter/fir_filter.cpp":39:0)
#loc17 = loc("tests/app/fir_filter/fir_filter.cpp":42:0)
#loc18 = loc("tests/app/fir_filter/fir_filter.cpp":44:0)
#loc19 = loc("tests/app/fir_filter/main.cpp":7:0)
#loc20 = loc("tests/app/fir_filter/main.cpp":12:0)
#loc21 = loc("tests/app/fir_filter/main.cpp":15:0)
#loc22 = loc("tests/app/fir_filter/main.cpp":22:0)
#loc23 = loc("tests/app/fir_filter/main.cpp":23:0)
#loc24 = loc("tests/app/fir_filter/main.cpp":26:0)
#loc25 = loc("tests/app/fir_filter/main.cpp":27:0)
#loc26 = loc("tests/app/fir_filter/main.cpp":28:0)
#loc27 = loc("tests/app/fir_filter/main.cpp":29:0)
#loc28 = loc("tests/app/fir_filter/main.cpp":31:0)
#loc29 = loc("tests/app/fir_filter/main.cpp":33:0)
#loc30 = loc("tests/app/fir_filter/main.cpp":34:0)
#loc31 = loc("tests/app/fir_filter/main.cpp":35:0)
#loc32 = loc("tests/app/fir_filter/main.cpp":37:0)
#loc33 = loc("tests/app/fir_filter/main.cpp":39:0)
#loc34 = loc("tests/app/fir_filter/main.cpp":40:0)
#loc35 = loc("tests/app/fir_filter/main.cpp":41:0)
#loc36 = loc("tests/app/fir_filter/main.cpp":43:0)
#loc37 = loc("tests/app/fir_filter/main.cpp":45:0)
#loc38 = loc("tests/app/fir_filter/main.cpp":46:0)
#loc39 = loc("tests/app/fir_filter/main.cpp":47:0)
#loc40 = loc("tests/app/fir_filter/main.cpp":49:0)
#loc42 = loc("tests/app/fir_filter/main.cpp":54:0)
#loc43 = loc("tests/app/fir_filter/main.cpp":60:0)
#loc44 = loc("tests/app/fir_filter/main.cpp":61:0)
#loc45 = loc("tests/app/fir_filter/main.cpp":64:0)
#loc46 = loc("tests/app/fir_filter/main.cpp":67:0)
#di_lexical_block = #llvm.di_lexical_block<scope = #di_subprogram, file = #di_file1, line = 28>
#di_lexical_block1 = #llvm.di_lexical_block<scope = #di_subprogram, file = #di_file1, line = 34>
#di_lexical_block2 = #llvm.di_lexical_block<scope = #di_subprogram, file = #di_file1, line = 40>
#di_lexical_block3 = #llvm.di_lexical_block<scope = #di_subprogram, file = #di_file1, line = 46>
#di_lexical_block5 = #llvm.di_lexical_block<scope = #di_subprogram, file = #di_file1, line = 60>
#loc47 = loc(fused<#di_subprogram>[#loc19])
#loc48 = loc(fused<#di_subprogram>[#loc20])
#loc49 = loc(fused<#di_subprogram>[#loc21])
#loc50 = loc(fused<#di_subprogram>[#loc22])
#loc51 = loc(fused<#di_subprogram>[#loc23])
#loc52 = loc(fused<#di_subprogram>[#loc24])
#loc53 = loc(fused<#di_subprogram>[#loc25])
#loc54 = loc(fused<#di_subprogram>[#loc28])
#loc55 = loc(fused<#di_subprogram>[#loc29])
#loc56 = loc(fused<#di_subprogram>[#loc32])
#loc57 = loc(fused<#di_subprogram>[#loc33])
#loc58 = loc(fused<#di_subprogram>[#loc36])
#loc59 = loc(fused<#di_subprogram>[#loc37])
#loc60 = loc(fused<#di_subprogram>[#loc40])
#loc61 = loc(fused<#di_subprogram>[#loc46])
#di_lexical_block6 = #llvm.di_lexical_block<scope = #di_lexical_block, file = #di_file1, line = 28>
#di_lexical_block7 = #llvm.di_lexical_block<scope = #di_lexical_block1, file = #di_file1, line = 34>
#di_lexical_block8 = #llvm.di_lexical_block<scope = #di_lexical_block2, file = #di_file1, line = 40>
#di_lexical_block9 = #llvm.di_lexical_block<scope = #di_lexical_block3, file = #di_file1, line = 46>
#di_lexical_block11 = #llvm.di_lexical_block<scope = #di_lexical_block5, file = #di_file1, line = 60>
#di_lexical_block12 = #llvm.di_lexical_block<scope = #di_lexical_block5, file = #di_file1, line = 63>
#loc62 = loc(fused<#di_lexical_block4>[#loc41])
#loc63 = loc(fused<#di_lexical_block5>[#loc43])
#di_lexical_block13 = #llvm.di_lexical_block<scope = #di_lexical_block6, file = #di_file1, line = 28>
#di_lexical_block14 = #llvm.di_lexical_block<scope = #di_lexical_block7, file = #di_file1, line = 34>
#di_lexical_block15 = #llvm.di_lexical_block<scope = #di_lexical_block8, file = #di_file1, line = 40>
#di_lexical_block16 = #llvm.di_lexical_block<scope = #di_lexical_block9, file = #di_file1, line = 46>
#di_lexical_block17 = #llvm.di_lexical_block<scope = #di_lexical_block10, file = #di_file1, line = 53>
#loc64 = loc(fused<#di_lexical_block6>[#loc26])
#loc65 = loc(fused<#di_lexical_block7>[#loc30])
#loc66 = loc(fused<#di_lexical_block8>[#loc34])
#loc67 = loc(fused<#di_lexical_block9>[#loc38])
#loc69 = loc(fused<#di_lexical_block11>[#loc44])
#loc70 = loc(fused<#di_lexical_block12>[#loc45])
#di_lexical_block18 = #llvm.di_lexical_block<scope = #di_subprogram1, file = #di_file, line = 11>
#di_lexical_block19 = #llvm.di_lexical_block<scope = #di_subprogram2, file = #di_file, line = 31>
#di_lexical_block20 = #llvm.di_lexical_block<scope = #di_lexical_block17, file = #di_file1, line = 54>
#loc72 = loc(fused<#di_subprogram1>[#loc10])
#loc74 = loc(fused<#di_subprogram2>[#loc18])
#loc75 = loc(fused<#di_lexical_block13>[#loc27])
#loc76 = loc(fused<#di_lexical_block14>[#loc31])
#loc77 = loc(fused<#di_lexical_block15>[#loc35])
#loc78 = loc(fused<#di_lexical_block16>[#loc39])
#loc79 = loc(fused[#loc62, #loc68])
#di_lexical_block21 = #llvm.di_lexical_block<scope = #di_lexical_block18, file = #di_file, line = 11>
#di_lexical_block22 = #llvm.di_lexical_block<scope = #di_lexical_block19, file = #di_file, line = 31>
#loc80 = loc(fused<#di_lexical_block20>[#loc42])
#di_lexical_block23 = #llvm.di_lexical_block<scope = #di_lexical_block21, file = #di_file, line = 11>
#di_lexical_block24 = #llvm.di_lexical_block<scope = #di_lexical_block22, file = #di_file, line = 31>
#loc81 = loc(fused<#di_lexical_block21>[#loc3])
#loc82 = loc(fused<#di_lexical_block22>[#loc12])
#di_lexical_block25 = #llvm.di_lexical_block<scope = #di_lexical_block23, file = #di_file, line = 13>
#di_lexical_block26 = #llvm.di_lexical_block<scope = #di_lexical_block24, file = #di_file, line = 36>
#loc83 = loc(fused<#di_lexical_block23>[#loc9])
#loc84 = loc(fused<#di_lexical_block24>[#loc17])
#di_lexical_block27 = #llvm.di_lexical_block<scope = #di_lexical_block25, file = #di_file, line = 13>
#di_lexical_block28 = #llvm.di_lexical_block<scope = #di_lexical_block26, file = #di_file, line = 36>
#di_lexical_block29 = #llvm.di_lexical_block<scope = #di_lexical_block27, file = #di_file, line = 13>
#di_lexical_block30 = #llvm.di_lexical_block<scope = #di_lexical_block28, file = #di_file, line = 36>
#loc85 = loc(fused<#di_lexical_block27>[#loc4])
#loc86 = loc(fused<#di_lexical_block28>[#loc13])
#di_lexical_block31 = #llvm.di_lexical_block<scope = #di_lexical_block29, file = #di_file, line = 15>
#di_lexical_block32 = #llvm.di_lexical_block<scope = #di_lexical_block30, file = #di_file, line = 38>
#loc87 = loc(fused<#di_lexical_block29>[#loc5])
#loc88 = loc(fused<#di_lexical_block29>[#loc8])
#loc89 = loc(fused<#di_lexical_block30>[#loc14])
#di_lexical_block33 = #llvm.di_lexical_block<scope = #di_lexical_block31, file = #di_file, line = 15>
#di_lexical_block34 = #llvm.di_lexical_block<scope = #di_lexical_block32, file = #di_file, line = 38>
#loc90 = loc(fused<#di_lexical_block31>[#loc6])
#loc91 = loc(fused<#di_lexical_block32>[#loc15])
#loc92 = loc(fused<#di_lexical_block33>[#loc7])
#loc93 = loc(fused<#di_lexical_block34>[#loc16])
